app/src/main/assets/ann_model.tflite (tflite, 11356 bytes, 5 tensors)

sequential/dense_1/BiasAdd/ReadVariableOp f4 [32]
0	0x00000000	0.0
1	0x3f1fa0bf	0.62354654
2	0xbca0b227	-0.0196162
3	0x3f0e63d5	0.5562108
4	0x00000000	0.0
5	0x00000000	0.0
6	0x3f313082	0.6921464
7	0x3f549d96	0.8305296
8	0xbc26300a	-0.010143289
9	0x3f0d9bc9	0.55315834
10	0x3f2907dc	0.6602762
11	0x00000000	0.0
12	0xbbc4c97e	-0.006005465
13	0x00000000	0.0
14	0x00000000	0.0
15	0x00000000	0.0
16	0x00000000	0.0
17	0xbc31aaaf	-0.010843917
18	0xbc5b712b	-0.013393681
19	0x00000000	0.0
20	0x3f113493	0.56720847
21	0x00000000	0.0
22	0x00000000	0.0
23	0xbd52d6ee	-0.051474504
24	0x3f0ef805	0.558472
25	0x3f152a27	0.58267444
26	0x00000000	0.0
27	0x3f4df079	0.8044506
28	0x3f5476d3	0.8299381
29	0x00000000	0.0
30	0x00000000	0.0
31	0x3f4210e0	0.75807

sequential/dense/BiasAdd/ReadVariableOp f4 [64]
0	0x3f507260	0.8142452
1	0x00000000	0.0
2	0x3f6e6cf5	0.93135005
3	0x00000000	0.0
4	0x3f6295bc	0.88509727
5	0x3f39f09f	0.72632784
6	0x00000000	0.0
7	0x3f652a9b	0.89518136
8	0x00000000	0.0
9	0x3f6202b6	0.88285387
10	0x3f64209f	0.89112276
11	0x3f5c866c	0.8614261
12	0x00000000	0.0
13	0x00000000	0.0
14	0x00000000	0.0
15	0x00000000	0.0
16	0x00000000	0.0
17	0x00000000	0.0
18	0x3f6405ac	0.89071155
19	0x3f5b026c	0.8555057
20	0x00000000	0.0
21	0x00000000	0.0
22	0x3eda75ae	0.42667907
23	0x00000000	0.0
24	0x00000000	0.0
25	0x3f5f84a5	0.87311774
26	0x00000000	0.0
27	0x3f4ac70b	0.79209965
28	0x3f6313c0	0.8870201
29	0x00000000	0.0
30	0x3f512018	0.81689596
31	0x3f5288a6	0.8223976
32	0x00000000	0.0
33	0x3f64db40	0.8939705
34	0x00000000	0.0
35	0x00000000	0.0
36	0x3f696155	0.9116414
37	0x00000000	0.0
38	0x00000000	0.0
39	0x00000000	0.0
40	0x3f633565	0.8875335
41	0x3f632f78	0.88744307
42	0x00000000	0.0
43	0x00000000	0.0
44	0x00000000	0.0
45	0x00000000	0.0
46	0x3f553d36	0.83296525
47	0x3f5734e0	0.84065056
48	0x00000000	0.0
49	0x3f553edd	0.83299047
50	0x00000000	0.0
51	0x3f5f4b95	0.87224704
52	0x3f652fc9	0.8952604
53	0x3f53b2ab	0.826945
54	0x3f561f90	0.8364191
55	0x00000000	0.0
56	0xbcb8dfc9	-0.022567647
57	0x3f687889	0.9080892
58	0x3f458c96	0.7716764
59	0x3f6fc9c6	0.93667257
60	0x3f5f5708	0.87242174
61	0x3f64fd64	0.89449143
62	0x3f5a49a6	0.8526863
63	0x3f6bbcbf	0.9208488

sequential/dense/MatMul f4 [64, 3]
0	0x3ef89818	0.48553538
1	0x3fac8afe	1.3479917
2	0x3f7de67b	0.9917981
3	0xbe788551	-0.24269606
4	0xbe2abe74	-0.16674215
5	0x3d27a470	0.040928304
6	0x3ea1f3b2	0.31631237
7	0x3f913430	1.1344051
8	0x3f910875	1.1330706
9	0xbd9dc630	-0.07703817
10	0xbdc09766	-0.09403877
11	0xbe75b30d	-0.23994084
12	0x3eced813	0.40399227
13	0x3fa1b5c7	1.2633599
14	0x3fb1a515	1.3878504
15	0x3e744cf4	0.2385748
16	0x3f4a4105	0.7900546
17	0x3f34c4bb	0.70612687
18	0xbd87eed6	-0.06637351
19	0x3e87c3b0	0.26516485
20	0xbe617e64	-0.2202087
21	0x3e70a33f	0.23499773
22	0x3f751493	0.9573452
23	0x3f96458f	1.1739978
24	0xbe87db24	-0.2653438
25	0xbe146126	-0.14490184
26	0x3e4c0b7a	0.19926253
27	0x3ed6fcd9	0.41989782
28	0x3f9570db	1.1675066
29	0x3f8c2ec5	1.0951773
30	0x3e9dedba	0.30845433
31	0x3faeae83	1.3647007
32	0x3fa91bce	1.321161
33	0x3ea94bee	0.33065742
34	0x3fae10f0	1.3598919
35	0x3f882d66	1.0638855
36	0xbe06ee87	-0.13176928
37	0x3daae068	0.08343583
38	0xbe919eb0	-0.2844138
39	0xbd2fe5a0	-0.042943597
40	0x3e39e6fa	0.18154517
41	0x3d97ca88	0.07411677
42	0xbda775c2	-0.081767574
43	0x3dd7ec98	0.105431736
44	0x3e990a0c	0.29890478
45	0xbd79cc9c	-0.060986146
46	0xbe76656c	-0.24062127
47	0x3d714c10	0.05891043
48	0xbda6ae9c	-0.08138773
49	0x3d99a530	0.0750221
50	0xbe2c4837	-0.16824423
51	0xbe594ecc	-0.21221465
52	0xbd23d818	-0.040001005
53	0x3e604774	0.21902257
54	0x3ee0c509	0.43900326
55	0x3f6d8e3b	0.9279515
56	0x3fa059c3	1.2527393
57	0x3edcbc13	0.4311224
58	0x3f857be2	1.0428431
59	0x3fa31e39	1.2743598
60	0xbe0a1a3b	-0.13486569
61	0x3e121310	0.14265084
62	0x3e96b03c	0.2943133
63	0xbe0c0656	-0.13674292
64	0xbe60f470	-0.21968246
65	0xbdc2d672	-0.095135584
66	0x3d757903	0.05992986
67	0x3eb7ca90	0.3589673
68	0x3eb999fe	0.362503
69	0xbe8b28fd	-0.2717971
70	0x3c1ec860	0.009691328
71	0xbdce58aa	-0.10075505
72	0xbe7abf26	-0.2448698
73	0xbe722f88	-0.23650944
74	0xbe86c717	-0.26323768
75	0x3eaafb1b	0.33394703
76	0x3f7e95b2	0.99447167
77	0x3fb0d760	1.3815727
78	0xbe33e536	-0.17567906
79	0x3d50acf8	0.050946206
80	0xbe8bd508	-0.27310967
81	0x3eb35183	0.35023126
82	0x3f632ecd	0.8874329
83	0x3f663f50	0.8994036
84	0x3ea8348f	0.328526
85	0x3f633e38	0.88766813
86	0x3fa73f75	1.306624
87	0xbc8fa0c0	-0.017532706
88	0x3e81710a	0.25281554
89	0xbe85ff2a	-0.26171237
90	0x3eccc07c	0.39990604
91	0x3facdb6f	1.3504466
92	0x3f5c406f	0.8603582
93	0x3ebe8edd	0.3721837
94	0x3f9c073d	1.2189709
95	0x3fa3796c	1.277143
96	0xbe0c1b35	-0.13682254
97	0x3e11b544	0.14229304
98	0xbcbd33b0	-0.023095936
99	0x3ed7a97e	0.421215
100	0x3f9c9c7b	1.2235254
101	0x3f8d37bd	1.1032635
102	0xbd2de330	-0.04245299
103	0xbe626692	-0.2210944
104	0x3e40de44	0.18834788
105	0xbe227726	-0.15865764
106	0x3e802d1e	0.25034422
107	0xbe7c26aa	-0.24624124
108	0x3e4e1c43	0.20127968
109	0x3f92f543	1.1481098
110	0x3fa465b2	1.2843535
111	0xbd93c4bc	-0.072152585
112	0xbdc3ba54	-0.09557024
113	0xbe57d81e	-0.21078536
114	0xbe7aa46c	-0.24476784
115	0x3e804ae2	0.2505713
116	0x3e321260	0.17389822
117	0xbdcdf666	-0.100567624
118	0x3d45dd08	0.048306495
119	0xbdc7c896	-0.097550556
120	0x3eee1a39	0.4650438
121	0x3f8db552	1.107096
122	0x3f8c28f0	1.0949993
123	0x3eb33811	0.35003713
124	0x3f865a6b	1.0496343
125	0x3f9b3f37	1.2128667
126	0xbd81fd10	-0.06347096
127	0xbe40ed35	-0.18840487
128	0xbe14568c	-0.1448614
129	0xbe2b6eca	-0.16741481
130	0x3dcaee98	0.099087894
131	0xbd7f4fd0	-0.062331975
132	0xbe4f06d5	-0.2021745
133	0xbb116280	-0.0022183955
134	0x3e809a1a	0.2511757
135	0xbe62f044	-0.22161967
136	0xbe4b964c	-0.19881552
137	0xbe47788a	-0.19479576
138	0x3ec74986	0.3892328
139	0x3f4add39	0.7924381
140	0x3f80a0da	1.0049088
141	0x3ee0a69c	0.43877113
142	0x3f893160	1.0718193
143	0x3f7039a4	0.9383795
144	0xbe2c56d7	-0.16830002
145	0xbe6e65dc	-0.23281044
146	0x3de2e9b0	0.110797286
147	0x3eb14080	0.34619522
148	0x3f5cfdb4	0.8632462
149	0x3f922037	1.1416081
150	0xbe35205c	-0.17688125
151	0x3e2e729a	0.17035905
152	0xbe6a9fc8	-0.22912514
153	0x3f007a41	0.50186545
154	0x3fb5b956	1.4197185
155	0x3f93ad4f	1.1537265
156	0x3ea953b6	0.3307168
157	0x3f9ae97b	1.2102503
158	0x3fae4d80	1.3617401
159	0x3eda8e5e	0.42686743
160	0x3faa819b	1.3320802
161	0x3f3fb762	0.74889195
162	0x3eafbdca	0.34324485
163	0x3f7b0824	0.98059297
164	0x3f960ae9	1.172208
165	0xbe002f39	-0.12518014
166	0x3e8c22c2	0.27370268
167	0xbe25d717	-0.16195332
168	0xbc245722	-0.01003054
169	0xbdbfe82c	-0.09370455
170	0x3e1015f8	0.1407088
171	0x3e90c37f	0.28274152
172	0x3f669b7a	0.9008099
173	0x3f6520cd	0.89503175
174	0x3ed96c94	0.4246565
175	0x3fa341a8	1.2754412
176	0x3f827e71	1.0194837
177	0x3eb4c2fc	0.3530501
178	0x3fb0f8f3	1.3825973
179	0x3f7b8a6a	0.9825808
180	0x3e87b2c0	0.26503563
181	0x3f6af56b	0.9178073
182	0x3f81d21f	1.0142249
183	0x3ed2b103	0.41150674
184	0x3f72865d	0.9473627
185	0x3faa89e1	1.3323327
186	0x3ec98723	0.39360914
187	0x3f83ae37	1.0287541
188	0x3f5d6470	0.8648138
189	0x3edaee39	0.42759874
190	0x3fa7249a	1.3058045
191	0x3f7ca43d	0.9868811

sequential/dense_1/MatMul f4 [32, 64]
0	0x3e3430c8	0.17596734
1	0xbdcc45f8	-0.09974283
2	0xb99f8000	-0.0003042221
3	0x3e4f83e8	0.20265162
4	0xbde657f8	-0.112472475
5	0x3d67e070	0.056610525
6	0xbd68c230	-0.056825817
7	0xbe231a64	-0.15928036
8	0x3e011d40	0.12608814
9	0x3e5146bc	0.2043714
10	0xb9f80000	-0.00047302246
11	0xbdcf0da8	-0.101100266
12	0xbe647b14	-0.22312576
13	0xbd091c50	-0.033474267
14	0xbcd3ac40	-0.025838971
15	0xbd8fa488	-0.07013804
16	0xbdeb5b78	-0.11492056
17	0x3d1b5160	0.037919402
18	0xbd53c640	-0.051702738
19	0x3dab9a90	0.0837909
20	0x3e022400	0.12709045
21	0x3e403104	0.18768698
22	0x3d264430	0.040592372
23	0x3ad73600	0.0016419291
24	0xbb910100	-0.004425168
25	0x3e4748c8	0.19461358
26	0x3db36560	0.0875957
27	0xbc315000	-0.010822296
28	0x3e4b87e4	0.19876057
29	0xbd2b09f0	-0.041757524
30	0x3e0e05fc	0.1386947
31	0xbe66028c	-0.22461909
32	0x3dda42a0	0.10657239
33	0x3ce027c0	0.027362704
34	0xbe7932ac	-0.24335736
35	0xbe3c8c5c	-0.18412918
36	0x3d9b28f8	0.075761735
37	0x3e5978c4	0.21237475
38	0x3e0f2d34	0.13982087
39	0xbe72f1e8	-0.23725092
40	0xbe777150	-0.24164319
41	0x3d96fb48	0.07372147
42	0xbd889190	-0.06668389
43	0xbdb99b68	-0.090628445
44	0xbd9c1c10	-0.0762254
45	0xbe7d4904	-0.24734885
46	0x3e233100	0.15936661
47	0xbd591f80	-0.053008556
48	0x3cf1a8a0	0.029499352
49	0xbd49cf50	-0.049269974
50	0xbe4050cc	-0.18780822
51	0xbe33f03c	-0.17572111
52	0xbe206704	-0.15664297
53	0xbe078c4c	-0.13237113
54	0x3e16ee30	0.14739299
55	0x3d2c5fe0	0.04208362
56	0xbe26cb44	-0.16288477
57	0xbde12ff0	-0.109954715
58	0xbe70794c	-0.23483771
59	0x3e459708	0.19295895
60	0x37f50000	2.9206276e-05
61	0xbd9ff708	-0.07810789
62	0xbe65db98	-0.2244705
63	0xbe719b3c	-0.23594373
64	0x3d1cbe40	0.038267374
65	0x3dc75f58	0.09734982
66	0x3ed4b498	0.41544032
67	0x3d7d15b0	0.06178826
68	0x3de99cbe	0.11406849
69	0x3e5e76de	0.21725032
70	0x3e1e7ff0	0.15478492
71	0x3e9b6fc1	0.303587
72	0x3e579018	0.21051061
73	0x3eeb2431	0.4592605
74	0x3e3fd007	0.187317
75	0x3e7db330	0.24775386
76	0xbd3cc020	-0.046081662
77	0xbdfc2978	-0.12312597
78	0x3e4d2ef8	0.20037448
79	0x3e0b1250	0.13581204
80	0x3def9210	0.11697781
81	0x3dfe7908	0.12425429
82	0x3d5176ea	0.051138796
83	0x3e8d44d4	0.27591574
84	0x3e73546c	0.23762673
85	0x3e4e6084	0.20154005
86	0x3e3ad564	0.18245465
87	0x3cc87260	0.0244686
88	0xbe3bc7ec	-0.18337983
89	0x3edf50b7	0.43616268
90	0x3d42ebd0	0.04758817
91	0x3ecd7abd	0.40132704
92	0x3d8ca41f	0.06867241
93	0xbe7f0138	-0.24902809
94	0x3edd93f4	0.43276942
95	0x3e02eb09	0.12784971
96	0xbe616b74	-0.22013646
97	0x3eb7c1b4	0.3588997
98	0x3d980428	0.07422668
99	0x3d12e7a0	0.035865426
100	0x3e2848d2	0.16434029
101	0x3e2f69a0	0.17130136
102	0xbe09c570	-0.13454223
103	0x3e2648e4	0.16238743
104	0x3e85b101	0.26111606
105	0x3eb5a3cc	0.3547653
106	0x3e25c6b8	0.16189086
107	0xbd51a040	-0.051178217
108	0x3de7a528	0.11310798
109	0x3ced45c0	0.028963923
110	0x3eec6b3b	0.4617556
111	0xb9c63405	-0.0003780426
112	0x3d8c8f88	0.06863314
113	0x3e5e71c1	0.21723081
114	0xbdab5018	-0.08364886
115	0x3ee37787	0.4442713
116	0x3df8c36c	0.12146649
117	0x3eea233f	0.45730016
118	0x3e4b3d5e	0.19847628
119	0xbe5f9840	-0.21835423
120	0xbbfda05a	-0.0077400627
121	0x3edf28f1	0.43585923
122	0x3ee1610a	0.44019347
123	0x3e8cd586	0.27506655
124	0x3edb0f29	0.42785004
125	0x3e6c6568	0.23085558
126	0x3e59f8e6	0.21286353
127	0x3e0b66e4	0.13613468
128	0xbe69c187	-0.22827731
129	0xbd1b1bf0	-0.03786844
130	0xbd93e559	-0.07221479
131	0x3cf31f20	0.029677927
132	0x3df6ae29	0.12044937
133	0x3c6a041b	0.014283205
134	0xbe588138	-0.21143043
135	0x3ba9cebe	0.0051821163
136	0x3d332f80	0.04374647
137	0x3dce4f6a	0.10073741
138	0xbcf3165a	-0.029673744
139	0x3e526d09	0.20549406
140	0xbe0f1b78	-0.13975322
141	0x3c2ffb00	0.010740995
142	0x3df08708	0.11744505
143	0x3e2d0514	0.16896468
144	0xbe12bea4	-0.14330536
145	0xbe0bf4b4	-0.13667566
146	0xbd1a86a2	-0.037726052
147	0xbb7ade9a	-0.0038279654
148	0xbddf0638	-0.10889858
149	0xbccb7860	-0.024837673
150	0xbe7d2587	-0.24721347
151	0xbe7ebbdc	-0.2487635
152	0x3e46d388	0.1941663
153	0x3df9f064	0.12204054
154	0x3da0ced8	0.07851952
155	0x3dfbecb3	0.12301006
156	0x3d6d4fe2	0.05793751
157	0x3e7944d4	0.24342662
158	0xbd4aa147	-0.049470212
159	0xbe64da0a	-0.223488
160	0x3e43f2e8	0.1913563
161	0xbe6e8b1c	-0.23295254
162	0x3e452eb0	0.19256091
163	0xbe3973f8	-0.18110645
164	0x3d88d45d	0.0668113
165	0x3d321020	0.04347241
166	0xbdda6ab8	-0.10664886
167	0xbdb4e350	-0.08832419
168	0x3e05bfa7	0.13061391
169	0xbdd1f042	-0.10250904
170	0xbceacc40	-0.028661847
171	0x3e5cbf48	0.21557343
172	0xbddc18c8	-0.10746914
173	0xbe2d9b08	-0.16953671
174	0xbde67bab	-0.112540565
175	0x3e5678fb	0.20944588
176	0xbcb123e0	-0.021623552
177	0xbe871a3a	-0.26387197
178	0x3e43bdac	0.19115323
179	0xbd84efc6	-0.06491046
180	0x3d53d152	0.051713295
181	0xbe62bf11	-0.22143199
182	0x3d8987db	0.067153655
183	0x3d9b61e0	0.075870275
184	0xbcb786b4	-0.022403099
185	0x3cbc70b3	0.023002958
186	0x3e54a86f	0.20767377
187	0xbe7307f2	-0.237335
188	0xbe886bb1	-0.26644662
189	0x3dff75ff	0.12473678
190	0x3e69789f	0.2279992
191	0x3d66461d	0.05621921
192	0x3ed630bf	0.41834065
193	0xbe40ec10	-0.1884005
194	0x3e0fa14b	0.14026372
195	0xbd66b350	-0.05632335
196	0x3d1ac9b2	0.037790008
197	0x3e1fc6c9	0.15603174
198	0xbe64e3b0	-0.22352481
199	0x3eb90d10	0.36142778
200	0x3e1982dc	0.14991325
201	0x3d2bfac7	0.041987207
202	0x3d845592	0.06461634
203	0x3dc2b6da	0.095075324
204	0x3e7f0e04	0.2490769
205	0x3e2fc090	0.171633
206	0xbe7d3194	-0.24725944
207	0x3e6f8034	0.2338875
208	0xbd1f3500	-0.038868904
209	0xbd1e0260	-0.038576484
210	0x3c858ca1	0.016302409
211	0x3d2a924f	0.041643437
212	0xbbc09480	-0.0058770776
213	0xbe0ea63c	-0.13930601
214	0xbdfa2bc9	-0.122153826
215	0xbdf4af10	-0.11947453
216	0xbe4c05f8	-0.19924152
217	0x3ea14805	0.3150026
218	0xbe175640	-0.14778996
219	0x3e88c866	0.26715392
220	0x3d8fa961	0.07014728
221	0x3e4f0360	0.20216131
222	0x3ea037fc	0.31292713
223	0x3ee20139	0.44141558
224	0xbdbdc928	-0.09266883
225	0x3eb050e1	0.34436706
226	0x3e220524	0.15822273
227	0x3ddf9db0	0.109187484
228	0x3e4dfb90	0.20115495
229	0xbd991460	-0.07474589
230	0x3e6d2084	0.23156935
231	0x3e108024	0.14111382
232	0xbd2803ac	-0.041019127
233	0x3d3ae9ed	0.045633245
234	0x3e0484bc	0.12941259
235	0xbe5f5c50	-0.21812558
236	0xbe18887c	-0.14895815
237	0xbe41f91c	-0.18942684
238	0x3ee32e21	0.4437113
239	0x3e95c9c9	0.29255512
240	0x3e354f58	0.17706048
241	0x3ec45b58	0.3835094
242	0xbe49deac	-0.19713849
243	0x3eb7cc26	0.3589794
244	0x3ee62c7c	0.44955814
245	0x3e94a929	0.2903531
246	0x3ee4c203	0.4467927
247	0xbd049c80	-0.032375813
248	0xbd80cbd0	-0.06288874
249	0x3df3a4c1	0.11896659
250	0x3ec23a6e	0.37935203
251	0x3d128d94	0.03577955
252	0x3e919b55	0.2843882
253	0x3e19e22a	0.15027681
254	0x3e899906	0.2687456
255	0xbca2eb04	-0.019887455

sequential/dense_2/MatMul f4 [1, 32]
0	0xbe992fbe	-0.29919237
1	0x3ee02c14	0.4378363
2	0xbe8d2979	-0.27570704
3	0x3f315910	0.69276524
4	0xbd6fd4b0	-0.058552444
5	0x3ec17f1c	0.3779229
6	0x3eba4ba2	0.36385828
7	0x3e8c312a	0.2738126
8	0xbd0f7f65	-0.035033602
9	0x3f21a6b7	0.6314501
10	0x3efd322d	0.49452344
11	0x3dbd9a70	0.09257972
12	0xbe66a915	-0.22525437
13	0x3c61cb00	0.013781309
14	0x3eaf191a	0.34198838
15	0x3e693e74	0.2277773
16	0x3ecc0346	0.39846247
17	0xbe0db055	-0.13836797
18	0xbdfb2546	-0.12262969
19	0xbead4296	-0.33839864
20	0x3f18989a	0.5960785
21	0x3db7b2f8	0.089696825
22	0xbeb3d183	-0.35120782
23	0xbec71229	-0.38881043
24	0x3f27bb53	0.6552021
25	0x3f1405a4	0.57821107
26	0xbdc5fb40	-0.09667063
27	0x3e910365	0.28322902
28	0x3e913efb	0.28368363
29	0xbe0fcd9c	-0.14043278
30	0xbd438630	-0.047735393
31	0x3ec8cc66	0.39218444
