app/src/main/assets/random_forest_1.tflite (tflite, 6788 bytes, 5 tensors)

sequential_3/dense_10/BiasAdd/ReadVariableOp f4 [16]
-0.03076524 -0.011332814 0.0 -0.104588434 -0.035884954 5.1461 -0.033583432 5.292514
-0.017232114 0.0 -0.018436054 0.0 5.119601 4.9952664 -0.026994942 4.9859753
00000000: 6207 fcbc 44ad 39bc 0000 0000 7632 d6bd
00000010: 1afc 12bd daac a440 c88e 09bd 465c a940
00000020: 5d2a 8dbc 0000 0000 3507 97bc 0000 0000
00000030: c5d3 a340 39d9 9f40 7f24 ddbc 1c8d 9f40

sequential_3/dense_9/BiasAdd/ReadVariableOp f4 [32]
6.257384 0.0 6.2014966 0.0 6.2748237 0.0 0.0 0.0
0.0 6.312719 6.271088 6.10137 6.2600646 6.1881275 0.0 6.2771826
0.0 6.274176 0.0 0.0 6.2913446 0.0 0.0 0.0
6.208074 6.2222004 6.3450904 6.1907167 0.0 0.0 0.0 6.1594176
00000000: 7d3c c840 0000 0000 a972 c640 0000 0000
00000010: 5bcb c840 0000 0000 0000 0000 0000 0000
00000020: 0000 0000 cb01 ca40 c1ac c840 6c3e c340
00000030: 7352 c840 2405 c640 0000 0000 aede c840
00000040: 0000 0000 0dc6 c840 0000 0000 0000 0000
00000050: b252 c940 0000 0000 0000 0000 0000 0000
00000060: 8ba8 c640 441c c740 fb0a cb40 5a1a c640
00000070: 0000 0000 0000 0000 0000 0000 f319 c540

sequential_3/dense_9/MatMul f4 [32, 20]
6.3711963 6.6565714 6.3793597 6.523094 6.6362467 6.414492 6.440546 5.8468504
6.491287 5.8322873 5.8221455 6.479892 6.1641917 5.72239 6.19377 5.452115
6.504641 5.5203667 5.850562 6.0868955 -0.16366154 0.15605867 0.21778685 -0.20315878
0.22703832 -0.10272069 0.18901896 0.00020238757 0.0016549528 -0.11060144 -0.27399695 -0.016192973
0.2273969 -0.015496075 0.01210323 -0.24327841 0.09865248 -0.13471687 0.30206782 0.03357485
6.460671 6.5056367 6.348268 6.512199 6.624414 6.2129064 6.4557676 5.96512
6.416381 6.2285757 5.743801 6.3994327 6.192536 5.328195 5.9348392 5.57254
6.1370907 5.3163686 5.9308443 6.467229 -0.26806983 0.11879259 0.22230464 0.2038573
-0.19958419 0.30037832 0.32618457 0.2781027 -0.10904835 -0.24124354 -0.14756988 0.14278436
0.063560754 -0.032541126 0.095000386 0.054249078 0.25932354 -0.19919294 -0.3379202 0.044053733
6.3037524 6.6846995 6.5190396 6.145138 6.536521 6.4035535 6.2998204 5.538918
6.4748607 6.3746076 5.8960466 5.9881825 5.9148383 5.737293 5.800731 5.4948235
5.9758687 5.7485986 6.419293 6.0992484 -0.025619447 0.15616769 0.060652286 -0.3053139
-0.3237577 0.051903516 0.091843694 -0.28573507 -0.116041556 -0.16110834 -0.20149426 0.31867272
-0.32725456 0.3262769 0.13755885 -0.19205922 -0.10542688 -0.27845064 -0.0016079843 -0.1085656
-0.2796685 -0.135477 -0.14006475 0.28125197 0.057393134 -0.2677819 -0.032446295 -0.18853597
0.22962445 0.028616011 0.16699797 -0.028930187 0.038083375 0.10542476 0.12351844 -0.2792907
0.15127411 -0.16391252 0.11960432 0.325554 -0.22778662 0.12603411 -0.09665382 -0.27305588
-0.29391724 -0.22227943 -0.32098415 0.2629423 0.17159009 0.24601579 -0.15517582 -0.13257371
-0.14509678 -0.1573266 -0.113103285 0.041457355 -0.08456969 0.07603669 -0.05117455 0.08694926
-0.11557993 0.21172798 -0.23460999 0.033405572 -0.1521576 -0.24429788 -0.24589121 -0.047008604
0.10384917 -0.21443562 0.1048556 -0.22573781 0.07878992 -0.074576676 -0.21264485 0.055575877
-0.037376374 -0.07847318 0.14497027 0.003018856 6.549498 6.4803476 6.3873906 6.2218423
6.486537 5.975196 6.0581064 5.894258 6.4921193 6.4389143 5.740027 6.529266
6.20644 5.895202 5.865918 5.6318088 6.4978294 5.835878 6.211007 6.039449
6.482577 6.40691 6.404927 6.344485 6.13262 5.941002 6.0078654 5.38943
5.949034 5.85973 5.5313797 5.9866886 6.016906 5.7290716 6.1552744 5.9715195
6.055849 5.7741356 6.407295 6.0210857 6.4029555 6.448602 5.844524 6.2727957
6.070907 5.697076 5.909036 5.3847027 5.972405 6.2325287 5.6888137 5.8386054
5.6960096 5.2176857 6.25552 5.6157265 6.440025 5.601641 6.109707 5.89182
6.412027 6.07669 6.3221307 6.048915 6.115248 6.0299273 6.432449 5.592941
6.189341 6.0375195 5.6469626 6.5391736 6.0803537 5.9148216 6.2442036 5.8702826
00000000: d7e0 cb40 a202 d540 b723 cc40 30bd d040
00000010: 225c d440 8543 cd40 f418 ce40 6619 bb40
00000020: a0b8 cf40 19a2 ba40 044f ba40 465b cf40
00000030: 0f41 c540 d21d b740 5d33 c640 ba77 ae40
00000040: 0526 d040 d8a6 b040 ce37 bb40 d9c7 c240
00000050: e496 27be d8cd 1f3e 8403 5f3e db08 50be
00000060: bc7c 683e 3a5f d2bd 308e 413e 0038 5439
00000070: 00eb d83a 0283 e2bd 5449 8cbe 20a7 84bc
00000080: bcda 683e 40e3 7dbc a04c 463c fa1d 79be
00000090: 500a ca3d 38f3 09be a2a8 9a3e c885 093d
000000a0: d1bd ce40 2d2e d040 0325 cb40 ef63 d040
000000b0: 33fb d340 21d0 c640 a695 ce40 43e2 be40
000000c0: fe52 cd40 7e50 c740 38cd b740 27c8 cc40
000000d0: 4129 c640 9380 aa40 34ea bd40 3f52 b240
000000e0: 0c63 c440 b11f aa40 7ac9 bd40 8af3 ce40
000000f0: 7340 89be 8849 f33d d4a3 633e f8bf 503e
00000100: cc5f 4cbe 30cb 993e aa01 a73e 7a63 8e3e
00000110: be54 dfbd 8c08 77be 8f1c 17be 1036 123e
00000120: 242c 823d d849 05bd 908f c23d 4834 5e3d
00000130: 0ec6 843e 3cf9 4bbe e003 adbe b071 343d
00000140: 57b8 c940 0fe9 d540 f99b d040 f8a4 c440
00000150: 2e2b d140 e9e9 cc40 2198 c940 d13e b140
00000160: 0f32 cf40 c9fc cb40 6aac bc40 319f bf40
00000170: 5b46 bd40 e797 b740 979f b940 98d5 af40
00000180: 513a bf40 85f4 b740 d96a cd40 0b2d c340
00000190: e0df d1bc 6cea 1f3e 886e 783d 1a52 9cbe
000001a0: 92c3 a5be c898 543d 8c18 bc3d de4b 92be
000001b0: 32a7 edbd 96f9 24be 8354 4ebe 1229 a33e
000001c0: e98d a7be c40d a73e 3adc 0c3e 2cab 44be
000001d0: 0cea d7bd 1591 8ebe 00c3 d2ba a457 debd
000001e0: b630 8fbe 7cba 0abe 226d 0fbe 4200 903e
000001f0: 1015 6b3d b61a 89be 68e6 04bd 930f 41be
00000200: ac22 6b3e 206c ea3c 8401 2b3e 00ff ecbc
00000210: 50fd 1b3d f0e8 d73d 3cf7 fc3d 31ff 8ebe
00000220: 9ae7 1a3e afd8 27be 1cf3 f43d 04af a63e
00000230: e540 69be 160f 013e 70f2 c5bd fbcd 8bbe
00000240: 527c 96be 389d 63be 0958 a4be 60a0 863e
00000250: 50b5 2f3e 90eb 7b3e 69e6 1ebe 67c1 07be
00000260: 4094 14be 391a 21be b2a2 e7bd 30cf 293d
00000270: e032 adbd 20b9 9b3d 689c 51bd 7412 b23d
00000280: 2cb5 ecbd 38cf 583e 9a3d 70be 48d4 083d
00000290: 34cf 1bbe 3929 7abe e8ca 7bbe 188c 40bd
000002a0: e0ae d43d 0395 5bbe 88be d63d d027 67be
000002b0: 9c5c a13d a8bb 98bd 92bf 59be 88a3 633d
000002c0: f817 19bd 8cb6 a0bd 1673 143e 00d8 453b
000002d0: 7d95 d140 025f cf40 8165 cc40 5519 c740
000002e0: b691 cf40 ce34 bf40 02dc c140 c39d bc40
000002f0: 71bf cf40 960b ce40 4dae b740 bfef d040
00000300: 289b c640 7fa5 bc40 9ab5 bb40 c737 b440
00000310: 38ee cf40 83bf ba40 92c0 c640 2b43 c140
00000320: 4571 cf40 6805 cd40 29f5 cc40 0506 cb40
00000330: 6c3e c440 b01c be40 6f40 c040 3676 ac40
00000340: 7d5e be40 e882 bb40 1001 b140 f492 bf40
00000350: 7e8a c040 8e54 b740 02f8 c440 b016 bf40
00000360: 84c9 c140 b8c5 b840 9008 cd40 bcac c040
00000370: 03e5 cc40 f35a ce40 5706 bb40 beba c840
00000380: df44 c240 724e b640 d316 bd40 7c4f ac40
00000390: f11d bf40 e070 c740 c30a b640 dbd5 ba40
000003a0: b645 b640 48f7 a640 382d c840 08b4 b340
000003b0: af14 ce40 a540 b340 b882 c340 ca89 bc40
000003c0: 532f cd40 3f74 c240 e54e ca40 b690 c140
000003d0: 1db0 c340 2af5 c040 9fd6 cd40 5ff9 b240
000003e0: 150f c640 5c33 c140 ebb3 b440 e940 d140
000003f0: 4292 c240 3846 bd40 84d0 c740 5bd9 bb40

sequential_3/dense_10/MatMul f4 [16, 32]
-0.35273287 0.2506763 0.13482083 0.06930703 -0.00902816 -0.069527894 -0.0011094809 0.14667973
0.2642046 0.23268467 0.1457771 -0.022864463 -0.09616262 0.1088502 -0.097472936 0.2555689
0.083117455 -0.27753332 0.071468085 0.10807201 -0.07725478 -0.04535988 0.3174096 -0.13081202
-0.17659444 -0.17671126 -0.14267012 0.08020946 0.10004601 0.22591063 0.11973861 0.026025308
0.2095275 -0.18419732 0.02461238 -0.34892702 -0.16320953 -0.32436687 0.32164773 0.022016257
0.2499468 0.27997398 -0.095083885 0.010460975 0.06136297 -0.044697344 0.21416649 -0.091491714
0.27234325 -0.29988334 0.27409503 0.020866573 0.051290184 -0.34057376 0.23224846 0.11080694
0.1556173 0.032062367 -0.21250868 -0.048328258 0.2564011 0.34688315 0.06862265 -0.31037703
-0.06708717 0.123560995 -0.15337187 -0.08510822 -0.20596996 -0.30129904 -0.28331155 -0.22804657
-0.32809046 0.08292031 0.13388696 -0.06502837 -0.09246394 0.25888786 -0.0106342435 -0.27007228
0.2640334 -0.08183098 -0.028336078 0.34221074 -0.30777678 0.3112665 -0.1285059 -0.25647706
0.019098252 -0.13315673 -0.10472193 0.15019813 0.34422132 -0.16890113 0.27458993 0.24212411
-0.22975042 0.33357057 0.04855111 -0.14824058 -0.08151615 -0.021801293 -0.3058069 -0.035387516
-0.20499451 -0.4253528 0.0880059 0.17440632 0.070652515 -0.33919305 0.28494582 0.0021338763
-0.269376 0.1370742 0.051756173 0.34558424 -0.123104446 -0.24250832 -0.15657327 -0.21891773
0.1492003 0.08135764 0.14823917 0.1757426 -0.23611608 -0.069875926 0.1024268 0.11752924
0.15458915 -0.030230254 -0.23386182 0.16230926 -0.1309666 -0.01158154 -0.21360342 0.20610759
0.3182104 0.2628917 0.11407243 0.043680575 -0.037338886 0.225204 0.23910579 0.16548191
0.3471463 -0.2626043 0.31745645 0.019833803 0.07652157 0.34989628 0.10612872 0.35213056
0.193049 0.14665683 -0.25095585 -0.37519595 -0.17101462 0.01689136 -0.16787578 -0.1994039
6.361269 0.3412691 6.5549293 -0.31430033 6.663684 -0.23105247 -0.12051554 0.18542
-0.30852064 6.4377785 6.0235176 6.671737 6.3414755 6.3766155 0.29061332 6.119261
0.011529535 6.6217074 -0.087718725 -0.30304435 6.174207 -0.3312168 0.10328093 -0.2132477
6.4155593 6.1373587 6.052235 6.413273 0.23445758 -0.13550667 -0.055167943 6.1115637
0.14415896 0.33858803 -0.038377803 -0.08618322 -0.19879225 -0.03884372 -0.2204351 -0.22690076
0.0002976358 -0.3185665 0.08433305 0.20631604 -0.1687069 -0.12004566 0.023625493 0.13945386
0.29743502 -0.018157542 0.23303255 -0.18399341 0.000102941915 0.108243376 0.13013363 0.33983186
0.08896702 0.016869083 -0.12933552 0.062219843 0.15418676 0.3317308 -0.17410636 0.13749464
6.6616645 -0.20488848 6.4054623 -0.086916 6.5512304 0.34739837 0.039013386 -0.07120675
0.058214813 6.25891 6.3399167 6.3056455 6.5956297 6.592511 0.16141173 6.3633018
-0.13216873 6.314773 0.28182676 0.07624474 6.727017 -0.26635316 -0.09491259 -0.3209157
6.7491956 6.3893294 6.2341404 6.6360927 0.1556544 -0.30444118 0.29796556 6.769928
00000000: 6799 b4be a558 803e 790e 0a3e d8f0 8d3d
00000010: d9ea 13bc a464 8ebd 006c 91ba 3633 163e
00000020: d345 873e e444 6e3e 9846 153e 414e bbbc
00000030: e8f0 c4bd dbec de3d e49f c7bd edd9 823e
00000040: 7c39 aa3d d918 8ebe dc5d 923d dc54 dd3d
00000050: c137 9ebd 48cb 39bd 8383 a23e 96f3 05be
00000060: 2cd5 34be ccf3 34be 1e18 12be db44 a43d
00000070: ece4 cc3d 1e55 673e 8439 f53d 0733 d53c
00000080: 618e 563e 399e 3cbe e79f c93c 90a6 b2be
00000090: 6620 27be 6a13 a6be 03af a43e 705b b43c
000000a0: 0ef2 7f3e c058 8f3e 57bb c2bd 8264 2b3c
000000b0: bd57 7b3d 9014 37bd 764e 5b3e 0260 bbbd
000000c0: 9370 8b3e 4f8a 99be 2f56 8c3e 60f0 aa3c
000000d0: a815 523d af5f aebe 8ad2 6d3e c0ee e23d
000000e0: 245a 1f3e d453 033d e09b 59be daf3 45bd
000000f0: 0147 833e ab9a b13e 088a 8c3d bde9 9ebe
00000100: 0065 89bd 8c0d fd3d 840d 1dbe 384d aebd
00000110: cae9 52be de43 9abe 360e 91be 0a85 69be
00000120: 79fb a7be 20d2 a93d aa19 093e 982d 85bd
00000130: bc5d bdbd f38c 843e 403b 2ebc ea46 8abe
00000140: 632f 873e 0097 a7bd 1021 e8bc 3f36 af3e
00000150: eb94 9dbe 535e 9f3e 0d97 03be f650 83be
00000160: f073 9c3c 3d5a 08be 7478 d6bd 8acd 193e
00000170: c73d b03e 6bf4 2cbe 0d97 8c3e 62ef 773e
00000180: b243 6bbe c3c9 aa3e 87dd 463d 61cc 17be
00000190: f0f1 a6bd a098 b2bc b992 9cbe 80f2 10bd
000001a0: 15ea 51be d8c7 d9be 703c b43d 9297 323e
000001b0: 44b2 903d b6aa adbe 6be4 913e 81d8 0b3b
000001c0: a7eb 89be 2e5d 0c3e 48fe 533d 6bf0 b03e
000001d0: 2f1e fcbd 1a54 78be be54 20be f82b 60be
000001e0: f7c7 183e d69e a63d 02cc 173e def5 333e
000001f0: 6ac8 71be 1c1b 8fbd 24c5 d13d 2cb3 f03d
00000200: 9e4c 1e3e 70a5 f7bc 7979 6fbe 6634 263e
00000210: 1c1c 06be 80c0 3dbc dbba 5abe de0d 533e
00000220: 79ec a23e be99 863e ce9e e93d 67ea 323d
00000230: a9f0 18bd e19b 663e 26d8 743e 1774 293e
00000240: 29bd b13e 1274 86be a789 a23e 807a a23c
00000250: 57b7 9c3d 9b25 b33e 045a d93d 754a b43e
00000260: a3ae 453e 352d 163e 497d 80be af19 c0be
00000270: 751e 2fbe c05f 8a3c a1e7 2bbe 8930 4cbe
00000280: 848f cb40 d3ba ae3e fbc1 d140 f9eb a0be
00000290: e63c d540 0599 6cbe dad0 f6bd bede 3d3e
000002a0: 6bf6 9dbe 4802 ce40 a8c0 c040 df7e d540
000002b0: 5eed ca40 3c0d cc40 45cb 943e fcd0 c340
000002c0: 60e6 3c3c 07e5 d340 e0a5 b3bd a128 9bbe
000002d0: 1b93 c540 4095 a9be f484 d33d 9b5d 5abe
000002e0: 434c cd40 3e65 c440 e9ab c140 8839 cd40
000002f0: a615 703e 43c2 0abe c8f7 61bd ee91 c340
00000300: 689e 133e 695b ad3e 0b32 1dbd d480 b0bd
00000310: 3290 4bbe 981a 1fbd bdb9 61be ac58 68be
00000320: 000c 9c39 261b a3be ceb6 ac3d 8344 533e
00000330: 80c1 2cbe 80da f5bd 408a c13c fecc 0e3e
00000340: 6749 983e 20bf 94bc 16a0 6e3e c568 3cbe
00000350: 85e2 d738 b4ae dd3d c041 053e 71fe ad3e
00000360: 5734 b63d 0831 8a3c 8870 04be 3cda 7e3d
00000370: 22e3 1d3e 9fd8 a93e f048 32be 65cb 0c3e
00000380: 5b2c d540 49ce 51be 8cf9 cc40 0401 b2bd
00000390: aea3 d140 33de b13e 80cc 1f3d d8d4 91bd
000003a0: a872 6e3d fe48 c840 99e0 ca40 d9c7 c940
000003b0: 660f d340 daf5 d240 1e49 253e 2ba0 cb40
000003c0: 3d57 07be 9f12 ca40 994b 903e 3426 9c3d
000003d0: b943 d740 715f 88be 8861 c2bd 104f a4be
000003e0: 69f9 d740 6375 cc40 147e c740 df5a d440
000003f0: de63 1f3e b7df 9bbe f18e 983e 40a3 d840

sequential_3/dense_11/MatMul f4 [1, 16]
-0.2294796 -0.44659334 -0.21503285 -0.14732072 -0.28228512 6.6524987 -0.22990224 6.4821076
-0.43903747 -0.44861808 -0.10348839 -0.10453698 6.6417756 6.819437 -0.5619892 6.9056506
00000000: b3fc 6abe e2a7 e4be 9231 5cbe 3edb 16be
00000010: ad87 90be 45e1 d440 7e6b 6bbe 6d6d cf40
00000020: 85c9 e0be 45b1 e5be b9f1 d3bd 7c17 d6bd
00000030: 6d89 d440 d438 da40 86de 0fbf 17fb dc40
