app/src/main/assets/random_forest.tflite (tflite, 6800 bytes, 5 tensors)

sequential_7/dense_22/BiasAdd/ReadVariableOp f4 [16]
00000000: 0000 0000 0000 0000 b891 7440 0000 0000
00000010: 0000 0000 0c33 0fbd 283c 91bd 6551 f5bc
00000020: f8be 7140 dd04 7240 0ae4 6840 15ba 6740
00000030: 87d8 6740 2120 7840 39d7 7940 0000 0000
0.0 0.0 3.821394 0.0 0.0 -0.03496079 -0.07091552 -0.029946038
3.7772808 3.7815468 3.6389184 3.6207325 3.6225908 3.876961 3.9037611 0.0

sequential_7/dense_21/BiasAdd/ReadVariableOp f4 [32]
00000000: 6cc0 9440 a036 9640 9d53 9040 0000 0000
00000010: 3540 9240 0000 0000 0000 0000 0672 9240
00000020: c16c 9340 0000 0000 99e9 9440 b3d8 3cbc
00000030: 0000 0000 0000 0000 f1c0 9240 a862 8f40
00000040: e74e 8a40 ca6e 9240 0000 0000 8913 9440
00000050: ccef 9340 93c7 9140 0000 0000 0000 0000
00000060: 63d3 9640 5d2c 9240 506b 9340 b03e 9240
00000070: c99b 9440 0000 0000 9b17 9340 05a3 9440
4.648489 4.694168 4.5102067 0.0 4.570338 0.0 0.0 4.576419
4.6070256 0.0 4.6535153 -0.0115262745 0.0 0.0 4.5860524 4.480793
4.3221316 4.576024 0.0 4.6273847 4.623022 4.555612 0.0 0.0
4.713304 4.5679154 4.6068497 4.5701523 4.6440167 0.0 4.5966315 4.6449

sequential_7/dense_21/MatMul f4 [32, 20]
00000000: 06f1 9c40 390b 9340 81cd 9340 e820 9740
00000010: 8b65 9840 2970 8940 76c0 9640 e659 8440
00000020: 6873 9640 6604 9140 bd55 9840 9aa4 9a40
00000030: f7fa 8b40 c799 8940 6717 8940 99e9 8b40
00000040: 0fa9 9940 27f8 8840 d973 9440 070c 9640
00000050: 309e 9e40 1dbf 9e40 994e 9a40 b473 9e40
00000060: 80da 8c40 174b 9b40 0103 9f40 dcbc 9340
00000070: e260 9840 193f 9540 cb71 9240 ce49 9f40
00000080: c83f 8e40 3262 9640 d837 9140 3096 8440
00000090: 87c8 8f40 7fcc 9740 d701 8d40 02f4 9840
000000a0: b987 9740 ec68 8940 c4eb 9240 f27e 8740
000000b0: d3b9 9240 f46e 8440 1a1c 9240 c0f1 9340
000000c0: fbe9 8940 38dc 8340 6a29 8340 8845 9940
000000d0: 6974 9340 1b5d 9240 e6d2 8140 2636 8e40
000000e0: af51 8e40 5d85 7f40 8434 9140 2aae 9440
000000f0: 052a 8bbe 62cf 2ebe 88e2 8bbe c45d f7bd
00000100: 1c84 223e da0a 033e c460 803e 99c2 17be
00000110: 508e b13d 88a9 90bd 9036 653d fc65 873e
00000120: 8d65 a4be fca6 a23e bc11 3bbe b688 0f3e
00000130: ec56 7e3e 6431 cfbd f016 583d d0e1 a63d
00000140: 63ae 9840 6c2d 8940 a78b 9640 b74d 8d40
00000150: f509 9340 5dfb 8540 7b3b 8c40 fc1f 8740
00000160: 832e 9340 dbc2 8b40 73fc 9040 05f7 9a40
00000170: be52 9140 0194 9440 a20f 9140 28ee 8340
00000180: af85 8b40 2ad5 8c40 41bb 8340 c4c4 8840
00000190: 283e 2ebd 0016 f33b f33e a6be edfe 89be
000001a0: 48ce 8cbd f45a 943d 0c45 5dbe 108a b93d
000001b0: 322f 3cbe 98e2 95be 4e44 a93e c4c6 ff3d
000001c0: 0ca7 643e 7e6e 94be 16dd ac3e 6dcc 8dbe
000001d0: ae11 29be a048 253c 44bb 3d3e 8576 48be
000001e0: 7632 18be 48e6 793e f68d 983e 088f 97bd
000001f0: 205b 483d 92cf 883e b8e9 a73e 24c9 80bd
00000200: d278 00be 70b8 533e e0ac 58bc aed7 a3be
00000210: bcb2 99bd d04b d4bd f16b 5dbe acbf b43d
00000220: c407 223e bcd0 0a3e 6015 03bd a21d 113e
00000230: 64bd 9440 3db3 8c40 3264 8c40 6ba7 9740
00000240: ad0b 8b40 2275 8640 adf3 9340 7de8 8a40
00000250: aff5 8a40 50b1 8740 b7d9 8540 3343 8f40
00000260: fc46 8d40 9c8c 8b40 f22d 8a40 a2cb 8c40
00000270: ea19 9740 d904 9340 85c8 9340 4942 8840
00000280: d59b 9440 6a32 9a40 b57d 9d40 ae26 9e40
00000290: f230 9740 fca0 8640 89b5 8640 808b 9640
000002a0: d555 9240 96c6 8d40 388d 9640 8d81 9140
000002b0: 71e7 9540 8577 8240 3342 8f40 a166 8240
000002c0: 58e3 8f40 a32a 9040 0e72 9240 69ae 8e40
000002d0: 4cce 86be 5a51 a83e b0ae 82bc 31e2 1abe
000002e0: e04c 2fbe 3401 ce3d 42be 81be ac62 a9bd
000002f0: 10ef 973c 5dcb 80be 58bf 543d 6888 50be
00000300: 2f4d 6dbe cc51 b9bd 108b 46be f076 85bd
00000310: c08b 803e 8410 503e fc38 debd 9c4f 503e
00000320: 16f6 9b40 1162 8d40 d816 8d40 42a1 9240
00000330: 36c0 9340 2378 8f40 28a1 9040 ae85 8f40
00000340: 152c 8940 6230 9540 354d 9640 bf03 9140
00000350: e3db 8d40 8fc0 8c40 ccc0 8540 1140 8740
00000360: 28f1 8940 486b 8440 d76b 9940 e318 8f40
00000370: 2cd2 843c 49af 00be 259b 8b3d a996 9bbe
00000380: 259d 8abd ba76 44be 601b 3e3e a883 193d
00000390: 4008 813e b616 8ebd 2dbb 483e 0916 00be
000003a0: b6d1 85be 2329 98be c50c 8a3e a30f 913e
000003b0: 1867 493e b228 afbe a0b0 68be 44f1 eb3d
000003c0: 5636 a5be 844b 6b3e 00a7 97be c3af 25be
000003d0: 6c86 82bd bf83 12be 675c 4fbe 6db0 17be
000003e0: c066 89be e423 853d 7ce1 a6bd d8ab 8b3d
000003f0: 0ccd 7b3e 922c e7bd b941 1fbe 2024 a9bd
4.904422 4.59512 4.618836 4.722767 4.7623954 4.2949414 4.710994 4.135974
4.7015877 4.531787 4.760466 4.832593 4.3743854 4.3000216 4.2841067 4.3722653
4.801887 4.280292 4.6391416 4.688968 4.95681 4.9608293 4.8220944 4.951624
4.4016724 4.8529162 4.9691167 4.616804 4.7618265 4.6639524 4.5763907 4.9777594
4.445286 4.6994867 4.538067 4.1433334 4.4932284 4.743713 4.4064746 4.779786
4.7353177 4.294058 4.59128 4.2342463 4.5851836 4.138544 4.5659304 4.6232605
4.309812 4.120632 4.0988054 4.7897377 4.60796 4.5738654 4.0569944 4.44411
4.447471 3.9925148 4.5376606 4.6462603 -0.27180496 -0.17071298 -0.27321267 -0.12078431
0.15870708 0.12797108 0.25073826 -0.14820327 0.08669722 -0.070635855 0.055960238 0.26444995
-0.32108727 0.31768024 -0.18268484 0.14016995 0.24837846 -0.101168424 0.05275625 0.08148539
4.7712874 4.2867947 4.7045474 4.4157367 4.5949655 4.186934 4.382261 4.2226543
4.5994277 4.367536 4.5308166 4.8426538 4.5413504 4.643067 4.5331583 4.122822
4.360069 4.401021 4.116608 4.2740192 -0.042539746 0.007418394 -0.324699 -0.26952305
-0.068752825 0.072439104 -0.2160837 0.090595365 -0.18377379 -0.2927444 0.33059925 0.124890834
0.22329348 -0.2899055 0.33762425 -0.27695027 -0.1651065 0.010088116 0.18528467 -0.19576462
-0.14863 0.24404252 0.29795808 -0.07400328 0.04891503 0.26720864 0.327955 -0.062883645
-0.1254609 0.20675826 -0.01322481 -0.32000488 -0.07504794 -0.103660226 -0.21623208 0.08825621
0.15823275 0.13556188 -0.032002807 0.1417146 4.648119 4.3968797 4.387231 4.739187
4.3451753 4.2017984 4.6234956 4.34088 4.3424907 4.2403946 4.1828265 4.476953
4.414915 4.360914 4.3181086 4.3998575 4.7219133 4.5943418 4.6182275 4.2580914
4.6440225 4.818654 4.921595 4.9422216 4.724725 4.2071514 4.20966 4.704529
4.5729775 4.4304914 4.7047386 4.5470643 4.684502 4.07709 4.476831 4.075028
4.496502 4.5052047 4.5764227 4.4587903 -0.26329267 0.32874566 -0.015952438 -0.15125348
-0.17119169 0.10058823 -0.25340468 -0.08270773 0.018546611 -0.25155154 0.051940292 -0.20364535
-0.23173974 -0.09048805 -0.19388986 -0.06516826 0.2510662 0.203188 -0.10850713 0.20342869
4.87379 4.418221 4.4090385 4.582185 4.6172132 4.483415 4.5196724 4.4850683
4.286631 4.662156 4.6969247 4.5317073 4.4330916 4.3985057 4.179785 4.2265706
4.310688 4.138096 4.794414 4.471788 0.016213499 -0.12566866 0.06816701 -0.30388382
-0.06768254 -0.19185916 0.1856513 0.037479073 0.25201607 -0.069379255 0.19602652 -0.12508406
-0.2613656 -0.29718885 0.26962867 0.28332242 0.19668233 -0.34210736 -0.22723627 0.11520627
-0.32268018 0.22978026 -0.29619598 -0.16180329 -0.06373295 -0.1430807 -0.20250092 -0.14813395
-0.26836205 0.06500986 -0.081484765 0.06819886 0.24589938 -0.11287798 -0.15552415 -0.082588434

sequential_7/dense_22/MatMul f4 [16, 32]
00000000: d4c1 adbd 700d 22bd 90db ca3d 767d 763e
00000010: 16e8 3a3e 1806 55bd 0add 183e f843 57be
00000020: 4a83 48be 8088 f53c ffb7 4fbe 1085 b73c
00000030: ce9e 7abe 1f5b aa3e c429 83bd f2ab 323e
00000040: 808b e3bb ecbd d0bd dcc4 fa3d bdd8 afbe
00000050: fe0c 453e 6fbd a7be aab2 413e 407f 423c
00000060: b0bb 203d 106b 4ebe e445 9f3d 173c 9cbe
00000070: 6ae4 323e 64a7 45be b0b8 30bd 3c3d debd
00000080: 327e 9abe 6eeb 273e b0d3 3c3d 2659 4b3e
00000090: d8ea dcbd 609c 313c 86cc 763e 5484 94bd
000000a0: 8a08 5a3e 7a36 2bbe bc50 7ebe 443d a9bd
000000b0: 1039 60bd 03db a23e a0f4 b0bd 802a b7bd
000000c0: 7e38 a8be 8b36 a73e f8ec ecbd d060 bebc
000000d0: acaa 60be 9c0a 56be 9060 16bd 29e1 a6be
000000e0: e7d7 32be 8f00 a7be 4849 ddbd 7c8e b33d
000000f0: a4d1 81be 40ac 56bd 6a02 d6bd de3d 90be
00000100: f93a 9e40 101b 9040 34da 9b40 d608 213e
00000110: 417b 9f40 c0c1 1b3c 58a1 97be 1ab0 9b40
00000120: 9966 9140 1cb3 a2be c10a 8c40 b98b 673e
00000130: 7889 a8be 8aac 81be beab 9640 98a2 9f40
00000140: b12e 8a40 26ba 9e40 8ef3 293e 335f 9f40
00000150: 4e81 8c40 fde8 a140 07d7 8a3e 4445 91be
00000160: 0a5e 9940 c23f 8d40 6785 9740 f6ba 9d40
00000170: 289e 9040 4658 68be 9adb 8c40 2730 9740
00000180: 1817 c1bd 33d0 8bbe 1e3b 403e f03c 2abd
00000190: ad38 81be 8b21 893e 8cef bbbd 4df0 973e
000001a0: b06e 0abe c014 df3b 406c cabb 885c 91be
000001b0: aa14 5ebe 4263 473e 84af 8a3d 6c6c c8bd
000001c0: 7e1a 68be 524c 543e 5847 17bd 4032 733c
000001d0: 8dec 2cbe 1eec 753e c084 813c 884a 18be
000001e0: 2ca8 87bd 3593 03be 5c02 943d ddce acbe
000001f0: faa2 85be e8ae 18bd 0097 8abd 5e66 65be
00000200: 5510 a23e 944d bbbd a2f1 70be 026c 713e
00000210: ad08 47be 4761 9e3e 1d7d af3e 34e0 40be
00000220: ec46 86be f079 b0bc 1323 8cbe c5fe 0dbe
00000230: 41b5 b43e fcae 103e 8e24 053e a2ce 8cbe
00000240: f254 343e e905 4cbe 8446 013e 1043 d03d
00000250: cefb 3c3e 8b7c 5ebe 4e34 063e a967 06be
00000260: 43dd b0be e407 3dbe 131a 0fbe d75c 913e
00000270: 6046 ce3c 9d72 a9be 655a 18be 1620 91be
00000280: ca0d 803e 8161 44be a12c c0be bbe6 97be
00000290: abb1 f5bd 2b73 6cbe 0d80 afbe 8561 92be
000002a0: 020a b9be b867 b4be dd07 2ebe f923 babc
000002b0: 9614 a4be 4bd5 8dbe 3687 a0be 4529 41bd
000002c0: e54d b4be 089f 0b3e bf12 983e 8c74 923e
000002d0: 8cf6 da3d c821 833e aea6 603e 5342 3bbe
000002e0: c959 96be 5239 a2be 2dce 903e 8126 893e
000002f0: 1c85 8d3e fcc9 53be afa7 c03d ba50 60bd
00000300: 5bff dcba 7a44 1dbd 5a8f 5c3e b79d 923e
00000310: 2fbb 6c3e 3a68 483e cf77 b1be f2c7 453e
00000320: bbd4 29bd 2ccf 983d a5ae 043e ed30 e53c
00000330: 40e7 9bbe b130 893e 34f7 843e d6d8 b0be
00000340: def8 eabd 78c2 adbe d0bb 3cbd c05c 6fbd
00000350: 44e3 733d 120d 313e f83b 003d 2034 a0be
00000360: d725 efbd 2431 55be 4aaa 763e 5619 233e
00000370: 471b a3be 602c 683d a54d 8cbe 872a 5cbe
00000380: 17e2 babe 8342 a33e 8291 1a3e 4c87 87be
00000390: 0e3a c93d e454 833d 40e6 a43c 98ba 033e
000003a0: ce44 14bb 6081 ce3d 5498 823e 950c fa3d
000003b0: 73c8 a33e 3aaa 6d3e 142f 3ebe 9d30 afbe
000003c0: 203a 373e 32e7 8f3c af2c 1fbe f459 9a3e
000003d0: c2c6 16be a70e 393e 38e2 eebd 98b5 163d
000003e0: adbb 94be 6f51 6a3d cdd3 35bd 6ec0 a9be
000003f0: e750 42be aa3d 82be c018 153e 1fb8 aa3d
-0.084842354 -0.039563596 0.099051595 0.24071297 0.18252596 -0.052007765 0.1492807 -0.21022022
-0.19581333 0.029972315 -0.20285033 0.022402316 -0.24474642 0.33272645 -0.064044505 0.17448404
-0.00694412 -0.10192475 0.12244579 -0.34345046 0.19243237 -0.32761714 0.18915811 0.011871159
0.039241493 -0.20158029 0.077770025 -0.30514595 0.17469946 -0.19302136 -0.04314488 -0.10851523
-0.30174404 0.16398403 0.04610032 0.19858226 -0.107869804 0.010840505 0.24101457 -0.07251802
0.2129232 -0.1672 -0.24835485 -0.082636386 -0.05474192 0.31807718 -0.086404085 -0.08943653
-0.328556 0.326588 -0.11568636 -0.023239523 -0.21940106 -0.20902485 -0.036713183 -0.3259366
-0.17465173 -0.32617614 -0.10804993 0.08767411 -0.25355256 -0.052410364 -0.10449679 -0.281722
4.944699 4.5033035 4.870386 0.15726027 4.9837956 0.009506643 -0.29615283 4.865247
4.543774 -0.31777275 4.3763127 0.22611894 -0.3291738 -0.2532695 4.7084646 4.988598
4.3181996 4.960223 0.16596815 4.980371 4.3907843 5.059691 0.27117178 -0.28373158
4.7927294 4.414033 4.7350345 4.9290724 4.519306 -0.22689924 4.401807 4.724628
-0.09428233 -0.2730728 0.18772551 -0.04156202 -0.25238553 0.26783404 -0.09176549 0.29675522
-0.13518786 0.0068078935 -0.006177455 -0.28390908 -0.2168757 0.19471458 0.06771758 -0.09786305
-0.22666356 0.20732239 -0.036933273 0.0148435235 -0.16887112 0.24015853 0.01581037 -0.14872181
-0.06623873 -0.12849124 0.072270125 -0.33751574 -0.26100904 -0.03727618 -0.06767082 -0.22402331
0.31653085 -0.09145656 -0.23529676 0.23576358 -0.19436903 0.30933592 0.3427514 -0.18835527
-0.26225984 -0.02154252 -0.2737051 -0.13866718 0.35294536 0.14129251 0.13002226 -0.27501398
0.17610529 -0.1992413 0.12624556 0.10169041 0.18455431 -0.21727197 0.1310589 -0.1312548
-0.3454381 -0.18460041 -0.1397479 0.28391144 0.025180042 -0.33095255 -0.14878233 -0.28344792
0.2501052 -0.1917782 -0.3753405 -0.2966822 -0.11996778 -0.23090808 -0.34277382 -0.28590026
-0.36140448 -0.3523538 -0.16995187 -0.022722231 -0.32046956 -0.27701792 -0.31353158 -0.0471585
-0.3521568 0.13634884 0.29701802 0.28604543 0.10691556 0.2561171 0.21938583 -0.1828702
-0.29365376 -0.31684357 0.282823 0.2678719 0.27640617 -0.2068252 0.09406983 -0.054764487
-0.001686077 -0.038395382 0.2153906 0.28635952 0.2311828 0.1957101 -0.3466172 0.19314554
-0.04146264 0.0746139 0.12957247 0.027977431 -0.30449867 0.2679496 0.2596985 -0.34540433
-0.11473249 -0.3393743 -0.04607755 -0.058438063 0.05954291 0.17290142 0.03130719 -0.31289768
-0.11677139 -0.20819527 0.24088398 0.15927634 -0.31856748 0.056682944 -0.27402988 -0.21500598
-0.36500618 0.31886682 0.1509457 -0.2647041 0.09825526 0.06412676 0.020129323 0.12864149
-0.0022624019 0.1008327 0.25506842 0.12209431 0.31988868 0.23209468 -0.18572646 -0.34216776
0.17893267 0.017566297 -0.15544389 0.30146754 -0.14724258 0.18071996 -0.116642416 0.036794275
-0.29049435 0.057206567 -0.044391442 -0.33154625 -0.18976174 -0.2543767 0.14560223 0.083358996

sequential_7/dense_23/MatMul f4 [1, 16]
00000000: 94dd 443e 043b 8f3e 68c2 9840 2717 fcbe
00000010: c4bf e1be 242e 17bd 0352 ecbe 0625 f9be
00000020: f76d 9a40 9758 9a40 408e 9f40 8e9b a040
00000030: 5ea2 a140 72e1 9840 0085 9740 3017 9dbd
0.1922515 0.27974713 4.773731 -0.49236414 -0.44091618 -0.036909238 -0.4615632 -0.4866106
4.8259234 4.823314 4.9861145 5.0189886 5.05107 4.77752 4.7349854 -0.07670438
