app/src/main/assets/random_forest_2.tflite (tflite, 6740 bytes, 5 tensors)

sequential/dense_1/BiasAdd/ReadVariableOp f4 [16]
00000000: 0000 0000 0000 0000 da55 71bd 74f4 a740
00000010: 0000 0000 0000 0000 0000 0000 45f0 ad40
00000020: 0000 0000 b37e 14bd 0000 0000 1675 ad40
00000030: 6792 a640 84d3 e4bc 0000 0000 999b 5ebc
0.0 0.0 -0.058919765 5.2485905 0.0 0.0 0.0 5.43558
0.0 -0.036253642 0.0 5.4205427 5.2053714 -0.02793289 0.0 -0.013586902

sequential/dense/BiasAdd/ReadVariableOp f4 [32]
00000000: 5290 6bbc 0000 0000 16a9 d040 0000 0000
00000010: 6ddd 64bd 85f0 8fbc 8b6a cf40 d694 d240
00000020: 35ce d140 d88c cf40 6144 cf40 f24c d040
00000030: 0000 0000 d999 d140 0000 0000 0000 0000
00000040: 750f cf40 0000 0000 339a d140 956b ce40
00000050: 0000 0000 0000 0000 1d37 d440 0000 0000
00000060: 4b74 cb40 0000 0000 0000 0000 1021 d040
00000070: 0000 0000 0000 0000 5da0 d040 0000 0000
-0.01437767 0.0 6.5206404 0.0 -0.05587523 -0.017570743 6.4817557 6.5806684
6.5564218 6.485943 6.477097 6.5093927 0.0 6.55003 0.0 0.0
6.470637 0.0 6.550073 6.4506326 0.0 0.0 6.6317277 0.0
6.357946 0.0 0.0 6.504036 0.0 0.0 6.5195756 0.0

sequential/dense/MatMul f4 [32, 20]
00000000: 961b 9bbc 207d 6cbd 78ce 06be 687a 503d
00000010: 6581 0b3e dc6e a93e 62d7 9ebe 8cd3 bfba
00000020: d73d 8ebe 5d2a 4e3e 0088 a4bc 587f c33d
00000030: 202c 8abe b1cf 723e fab6 ad3e 257e 75bd
00000040: bf02 ba3d a188 373e 0c02 10bc ac09 073e
00000050: 024d a4be 4cb6 a63d e4cf 903e 785f 7e3e
00000060: d6f8 69be 80c5 503b 0837 503e 1c50 413e
00000070: c220 68be e426 9a3d 4c9b 893e 487e 49be
00000080: 18ba 693e cbe1 3bbe a852 1a3e 9d62 4abe
00000090: 8863 2e3d 60fd ab3e 15bf 52be 9495 013e
000000a0: f658 c640 cde8 ca40 03fd ce40 007d c940
000000b0: 9331 ce40 dabe bf40 85f6 d740 13ef ce40
000000c0: a520 cd40 f9c3 bf40 9d09 c640 8435 cf40
000000d0: f986 cd40 0890 d240 2f6b d540 d592 ce40
000000e0: d759 d740 f21b d640 d9d0 da40 c7c9 d740
000000f0: 50dc 54bd 401b 2d3e bc6b 8a3e b857 823e
00000100: 60cd e1bc f08b bc3c 5499 a13d 789d 7c3d
00000110: ad40 a7be 002a ad3b f44d 2b3e bb3f a2be
00000120: 349d ea3d 50b6 a03e 0a7c 973e 9af1 a3be
00000130: c82a 9ebd b012 e9bc 182a 7d3e 0eb9 203e
00000140: a8b4 1a3e fa7f b2be 2ee5 c3bd 3838 b0be
00000150: ce3c c7be 573f a5be 2508 4cbe 581c c33c
00000160: 7671 ccbd ca33 5bbe 95b7 803b 788b b1be
00000170: c43f 5f3e 72e2 663d be49 9b3e 8d20 f5bd
00000180: d0e5 493e eda1 4d3e 97ba 803e a74d f03d
00000190: 2836 d6bc f563 09be a335 8b3c 98cb 09bd
000001a0: df8f f73d eb18 a63e 3c64 543e 162e 2e3d
000001b0: f8e9 653e 7b1d 973e 8b19 e9bd 0cd2 7e3e
000001c0: 24da 71bd 3fc0 9dbe e46a acbd 9510 963c
000001d0: 60b4 b63d 98f0 e53d d279 92be 0ba4 a1be
000001e0: edf5 c640 8ad6 ca40 58a7 c640 d315 cf40
000001f0: c116 c140 e90a c940 8dad cb40 333d cb40
00000200: 8a56 c240 493b c340 35c8 ce40 5380 c240
00000210: e9e5 c740 f3d1 c440 7c2e cc40 a0a7 d240
00000220: 2d2c c840 48da d140 5921 c940 bc04 d540
00000230: 75c0 c640 e311 c640 7785 bf40 b997 c840
00000240: 1a80 ce40 6994 c640 48a6 c640 c3ae cc40
00000250: cf81 d340 4d14 cf40 b374 c740 3016 d940
00000260: aee2 c040 2509 c840 fd0a d440 40b2 da40
00000270: 9bdb dd40 8d7d d540 fca5 dd40 840f d940
00000280: efbd c840 353e ce40 9c22 c540 fe32 cd40
00000290: 7c19 ce40 d022 c540 4d30 d940 d045 ce40
000002a0: 7538 c640 fd1e c040 45f3 d040 cb53 c440
000002b0: cdc3 d140 485b d040 3ead d640 7028 d440
000002c0: 5b57 ce40 e107 cd40 4abf d440 8542 d340
000002d0: b822 c940 960a c440 0cbb bd40 007c c940
000002e0: 26a2 d140 6031 c840 c9e0 c840 824e be40
000002f0: f8d2 c540 8405 c340 9e11 c040 1e1e d340
00000300: ee92 d040 ae4a c840 4aae c240 7af9 d840
00000310: 4a15 ca40 ae93 c740 31da d540 f507 d040
00000320: 2a4e c140 bda0 d540 7076 c340 979c d040
00000330: a398 c840 40c4 c740 a9b1 d240 0e96 c340
00000340: 2ac3 ba40 74b0 be40 2620 bd40 4faf d540
00000350: 384a c240 a58a cf40 c91c d240 8b5a d140
00000360: 2d4d c740 ad79 c840 cbcf d440 3176 cd40
00000370: b546 cb40 7ffd d340 d0c3 ce40 9497 cc40
00000380: 6bcb c840 4131 cd40 0ce8 d140 15f2 ce40
00000390: f8fc cb40 3df0 c440 b05b d040 b450 ca40
000003a0: 595a cf40 6101 ca40 1157 d640 20d8 ce40
000003b0: 97b3 db40 8941 da40 6d50 d640 ade6 cf40
000003c0: 1cbd 623e 47cb 0abe b097 9f3d 189b e03d
000003d0: a424 5a3e 7b72 3bbe 70cd 5b3e 3840 153e
000003e0: 308f 8c3d 30ff 3c3d 9fdc 8ebe 741e b5bd
000003f0: 98bb 69bd 7011 623d 5e70 51be 63c9 3dbe
-0.018934052 -0.057736516 -0.13164699 0.050897986 0.13623579 0.33092391 -0.310237 -0.001463519
-0.27781555 0.20133348 -0.020084381 0.09545773 -0.2698679 0.2371204 0.33928663 -0.059934754
0.09082555 0.17923214 -0.0087895505 0.13187283 -0.32090002 0.08140239 0.28283608 0.24841106
-0.2284883 0.0031856 0.20333493 0.18878216 -0.22668746 0.07526949 0.26876295 -0.19677079
0.22824895 -0.18347852 0.15070593 -0.1976418 0.04257539 0.33591747 -0.20580705 0.12654716
6.1983595 6.340918 6.468385 6.296509 6.4435515 5.9920473 6.7488427 6.466684
6.410235 5.9926724 6.1886735 6.4752827 6.422726 6.580082 6.669334 6.455424
6.729717 6.6909113 6.837994 6.743381 -0.05196792 0.16904926 0.2703532 0.2545755
-0.02756375 0.023015946 0.07890573 0.06167361 -0.3266653 0.005284548 0.16728956 -0.31689247
0.11455765 0.31389093 0.29586822 -0.32020265 -0.077230036 -0.028451294 0.24723089 0.15695593
0.15107977 -0.34863263 -0.09565197 -0.34417892 -0.38913578 -0.32274887 -0.19924982 0.023817226
-0.099825785 -0.21406475 0.0039281347 -0.3467672 0.21801668 0.0563683 0.30329698 -0.11969099
0.19716573 0.20081301 0.25142357 0.11733561 -0.02614887 -0.13417037 0.01699335 -0.033641428
0.12087988 0.32440886 0.20741361 0.04252442 0.22452533 0.2951468 -0.11381825 0.24884814
-0.059045926 -0.30810735 -0.08418825 0.018318454 0.089211226 0.1122753 -0.28608567 -0.31570467
6.21752 6.338689 6.2079277 6.471414 6.0340276 6.282582 6.3649354 6.3512206
6.073064 6.100987 6.4619393 6.0781646 6.246815 6.1506286 6.3806744 6.582962
6.2553926 6.5578957 6.2853208 6.656828 6.2109933 6.1896834 5.985042 6.268521
6.4531374 6.2056165 6.207798 6.396333 6.609596 6.471228 6.2329955 6.7839584
6.027671 6.2511163 6.6263413 6.834259 6.9330573 6.671576 6.926512 6.783144
6.2731853 6.4450936 6.160475 6.4124746 6.440611 6.1604996 6.787146 6.446022
6.1943917 6.0037827 6.529696 6.1352286 6.5551515 6.5111427 6.7086477 6.629936
6.4481635 6.407212 6.6483507 6.60187 6.285488 6.126292 5.929083 6.2963867
6.5510435 6.256027 6.2774396 5.9470835 6.182003 6.0944233 6.0021505 6.5974264
6.5179358 6.259116 6.0837755 6.7804537 6.315099 6.2367773 6.6828847 6.5009713
6.0407915 6.6758714 6.1082077 6.519115 6.2686324 6.2427063 6.584187 6.112067
5.8363237 5.9590397 5.9101744 6.67765 6.07156 6.4856744 6.566014 6.5423026
6.228171 6.264853 6.6503654 6.4206777 6.352381 6.6246943 6.461403 6.393503
6.2748313 6.4122624 6.559576 6.467051 6.37463 6.154326 6.5111923 6.3223515
6.479779 6.3126683 6.698128 6.4638824 6.8656726 6.8205 6.6973176 6.4969087
0.22142452 -0.13554107 0.07792604 0.10967082 0.2130304 -0.1830539 0.21465087 0.14575279
0.06863248 0.046141803 -0.27902696 -0.08843699 -0.05706367 0.05519241 -0.20453021 -0.18533854

sequential/dense_1/MatMul f4 [16, 32]
00000000: d417 96be b191 a3be 300f 38be d29d efbd
00000010: 1c23 87bd 9e49 7a3e 80de 11bb f667 36be
00000020: 2080 afbc d0d3 dbbc d296 12be 180d bbbd
00000030: 1049 673d 598c 55be aa7a 41be 2bf6 993e
00000040: 13e5 8ebe 8a04 4b3e d4ed fdbd d480 833d
00000050: b0ad 01bd 9e40 88be e19d 943e 8e29 333e
00000060: 2b9d 2ebe 60de a23d 6dbc 923e 07b8 acbe
00000070: 5a1d 12be f0bd e9bd f4b2 8ebd a6e1 19be
00000080: fe8e 183e 9463 fa3d 6239 07be 78ec 973d
00000090: 800c e4bc e350 a43e 52a0 1b3e 3a1e 74be
000000a0: 76f0 603e 6469 6ebe 809d 8b3d e052 f03c
000000b0: b396 42be 5e2a 543e b6f4 ddbd 08c4 5fbd
000000c0: 755b afbe 9057 8d3c ec24 3ebe ccdf 83bd
000000d0: 6fe6 9b3e 3df8 a0be 24ec 043e f6ce 793e
000000e0: a290 38be 3f2d 883e bb33 56be 2eac fcbd
000000f0: 52f8 58be 1f7d a03e 6af0 46be cade 493e
00000100: c7a7 3dbe 6cdc d13d e2c1 803d 50ab c7bc
00000110: 87e3 f13d 2fbe ed3c 121a 1a3e 6d3a b93c
00000120: 779e 863e df17 65bd 04aa d7bd e0dd 513d
00000130: dc5e a63d abb1 213e b7b8 943e 9593 903e
00000140: 301d 993d 4887 23bd 11a2 a1be 2863 bebd
00000150: a831 12bd 46fd 9ebe f542 4ebe d205 1e3e
00000160: 1c42 a8bd 45d5 8f3e e57a 15be ea51 603e
00000170: caab 513e c869 02bd 083a 14be 6ada 38be
00000180: 8625 f0bd 3782 813e 5c34 cf40 ac04 16be
00000190: 73d2 9abe 0f5e 8bbe c2e7 d140 ba5e d440
000001a0: 6cc1 d340 9bd5 c240 1410 d040 4bcf cf40
000001b0: 8628 283e 2ab1 ca40 0e5d 0abe fb53 aa3e
000001c0: 3575 cd40 fe91 57be 0837 d140 72fb d440
000001d0: 10a0 aa3d a3c3 a4be 4e23 d540 8e6c 793e
000001e0: 0077 ca40 ad82 1dbe 30f5 2f3d b4b7 d140
000001f0: 2575 3cbe ebeb a93e 769e ca40 2bba b33e
00000200: 9753 963e 1195 813e f046 573d 7ae7 a0be
00000210: a3db a63e 4f22 ac3e 9da6 acbe a5de b4be
00000220: 08b3 97be 6e4e a9be ffb6 b1be 66cf 283e
00000230: c04b d1bc dd55 803e deb2 293e db5b 983e
00000240: 71b1 a03e c90f abbe d16a b33e 66ce 4b3e
00000250: c494 a33d b6cd 96be 70f0 91be 5c16 ca3d
00000260: eca0 ddbd 586c 4ebe e00f 5d3d f256 033e
00000270: abfd a93e f664 203e 3c9c a3bd eee7 ecbd
00000280: e11c 8e3e e8f2 41bd e08a 783c 99e6 9fbe
00000290: b6bf 5a3e df86 a63e 2337 06be 2d9d 0bbe
000002a0: 7907 a63e 4e80 1d3e 4035 e73c cb9e acbe
000002b0: 3074 78be c01f ed3b cb20 8fbe 92d0 353e
000002c0: 800d d9bc e6cc 153e a431 1ebe fea7 4cbe
000002d0: 80f7 82be cafe 503e 8be4 913e 0ce3 24be
000002e0: e636 673e 36bb 0a3e a059 953c 5e65 483e
000002f0: 2cdd 56be bbed 8dbe 6918 acbe 716b 8e3e
00000300: 4887 b03d ec53 d43d 00c7 aabc 25de 17be
00000310: 9e4e 7c3e a8cf 3e3d 9e0e 3bbe b297 703e
00000320: 04c3 b73d fac9 59be 2807 f63d 885c 5dbe
00000330: 6518 13be 567e 87be 3be1 8e3e 1035 1a3d
00000340: abdf 873e 407d 093c f46b 6abe 5163 a8be
00000350: 9209 353e e6dc 1d3e 0068 77bd aded 8f3e
00000360: 0003 e3bb 1d97 953e 06d3 583e 195d 63be
00000370: 1f2f 1abe a2ec 14be ac2e a6be c9e1 813e
00000380: 9005 9b3d 509e c43c 79ce df40 d6cd 0f3e
00000390: 792d 903d 75bd a93e 772c cf40 4880 d540
000003a0: 89a9 cc40 8601 db40 2b3d da40 be45 e040
000003b0: 1605 02be 4e0f c940 5ec4 22be 5f64 27be
000003c0: 6e48 d040 2cc9 8bbe 23df d340 0ad0 d240
000003d0: bd17 8a3e 6043 f53c da72 ca40 cfde 943e
000003e0: 93e2 d240 3f2c 7bbe 5f81 8cbe 1dd2 cd40
000003f0: 6ea9 553e dadd adbe f68c ce40 502e 31be
-0.29315054 -0.3194709 -0.17974544 -0.11700024 -0.065984935 0.24442145 -0.0022257864 -0.17813095
-0.0214234 -0.026834399 -0.14315346 -0.09133357 0.056466162 -0.2085432 -0.18894449 0.30070624
-0.27909145 0.1982595 -0.12398878 0.064210564 -0.031659782 -0.266118 0.29026702 0.1749632
-0.17052142 0.07952571 0.28659382 -0.33734152 -0.14269009 -0.11413181 -0.06967726 -0.15027484
0.14898297 0.12226024 -0.13205484 0.0741815 -0.027837992 0.32092962 0.15197876 -0.23839656
0.21966729 -0.23282391 0.0681715 0.029336393 -0.190028 0.20719287 -0.108376905 -0.05463031
-0.34249464 0.017253667 -0.18568772 -0.0643917 0.30449244 -0.3143939 0.12980705 0.24395356
-0.18023923 0.2659702 -0.20918171 -0.12337528 -0.21188477 0.3134546 -0.19427648 0.19713894
-0.18521033 0.1024712 0.0628698 -0.02437368 0.118109755 0.02902135 0.15049008 0.022610867
0.26292774 -0.05593097 -0.10530475 0.051236987 0.08123562 0.15790431 0.29047176 0.28237596
0.0747627 -0.039923936 -0.3156896 -0.09296256 -0.035691887 -0.31052607 -0.2014273 0.15431908
-0.08215734 0.280924 -0.14597662 0.21906248 0.20475689 -0.031839162 -0.14475262 -0.18052068
-0.11725907 0.2529466 6.4751415 -0.1465022 -0.30238685 -0.272202 6.5595407 6.6365633
6.617361 6.088575 6.5019627 6.4940543 0.16421708 6.3341265 -0.1351206 0.33267197
6.4205575 -0.21051785 6.5379677 6.655694 0.08331311 -0.3218051 6.6605597 0.24357817
6.3270264 -0.1538188 0.04295844 6.5536747 -0.18404062 0.33187804 6.3318434 0.35102972
0.2936065 0.2530904 0.052557886 -0.31426603 0.32589445 0.33619925 -0.33720866 -0.35326114
-0.29628778 -0.3306765 -0.34709927 0.16485366 -0.025548816 0.25065508 0.16572139 0.2975758
0.31385377 -0.3341048 0.35042432 0.19902954 0.07987359 -0.2945382 -0.28503752 0.09867546
-0.10821709 -0.20158517 0.053970218 0.12826136 0.33201346 0.15663514 -0.07988784 -0.115676746
0.27756408 -0.047350794 0.015169829 -0.3123062 0.21362194 0.32524773 -0.1310697 -0.13634177
0.32427576 0.15380976 0.028223634 -0.337149 -0.24263072 0.007236451 -0.27954707 0.17755345
-0.026495695 0.14628944 -0.15448624 -0.19985959 -0.25579453 0.20409694 0.28494677 -0.16102237
0.22579536 0.13547978 0.018231213 0.19569919 -0.20982808 -0.27720436 -0.33612373 0.27816346
0.08619553 0.10367569 -0.020846844 -0.14830835 0.24639365 0.046584755 -0.18267295 0.23495367
0.08972743 -0.21268454 0.12013084 -0.21617329 -0.14364775 -0.26463574 0.27906212 0.03764826
0.26537833 0.008391678 -0.22892743 -0.32888272 0.17679432 0.15416297 -0.060401917 0.2811102
-0.006927848 0.29216853 0.21174249 -0.22203483 -0.15057038 -0.14543393 -0.32457483 0.25367573
0.0756942 0.02400127 6.993954 0.14043364 0.07039923 0.33152357 6.474178 6.6719093
6.395695 6.843936 6.819967 7.0085135 -0.12697253 6.2831182 -0.1589522 -0.16346882
6.5088415 -0.2730192 6.6209884 6.5878954 0.26971236 0.029939353 6.32652 0.2907624
6.590158 -0.24528597 -0.27442452 6.4318986 0.20865414 -0.33958322 6.454707 -0.17302823

sequential/dense_2/MatMul f4 [1, 16]
00000000: e0b2 6abd 4454 89be 5f90 edbb 34f4 e240
00000010: 20b3 d13e 089e fc3d 4b14 16bf bf20 db40
00000020: dcdb 5a3e e00d 94be 00e6 4dbb 1af1 db40
00000030: c42c e740 27a5 78be 481d 863d d69a f7be
-0.057299495 -0.26822102 -0.0072498764 7.09231 0.40956974 0.123348296 -0.58624715 6.8477473
0.21372932 -0.28916836 -0.0031417608 6.8731813 7.2242146 -0.2428175 0.06548554 -0.48360318
